Using TensorFlow backend.
INFO:log:Using weight shaper max_output: 1.0
2017-09-30 18:32:14.377599: W tensorflow/core/platform/cpu_feature_guard.cc:45] The TensorFlow library wasn't compiled to use AVX512F instructions, but these are available on your machine and could speed up CPU computations.
_________________________________________________________________
Layer (type)                 Output Shape              Param #   
=================================================================
conv2d_1 (Conv2D)            (None, 32, 32, 48)        1296      
_________________________________________________________________
activation_1 (Activation)    (None, 32, 32, 48)        0         
_________________________________________________________________
conv2d_2 (Conv2D)            (None, 32, 32, 48)        20736     
_________________________________________________________________
activation_2 (Activation)    (None, 32, 32, 48)        0         
_________________________________________________________________
conv2d_3 (Conv2D)            (None, 16, 16, 48)        20736     
_________________________________________________________________
activation_3 (Activation)    (None, 16, 16, 48)        0         
_________________________________________________________________
conv2d_4 (Conv2D)            (None, 16, 16, 96)        41472     
_________________________________________________________________
activation_4 (Activation)    (None, 16, 16, 96)        0         
_________________________________________________________________
conv2d_5 (Conv2D)            (None, 16, 16, 96)        82944     
_________________________________________________________________
activation_5 (Activation)    (None, 16, 16, 96)        0         
_________________________________________________________________
conv2d_6 (Conv2D)            (None, 8, 8, 96)          82944     
_________________________________________________________________
activation_6 (Activation)    (None, 8, 8, 96)          0         
_________________________________________________________________
conv2d_7 (Conv2D)            (None, 8, 8, 96)          82944     
_________________________________________________________________
activation_7 (Activation)    (None, 8, 8, 96)          0         
_________________________________________________________________
conv2d_8 (Conv2D)            (None, 8, 8, 96)          9216      
_________________________________________________________________
activation_8 (Activation)    (None, 8, 8, 96)          0         
_________________________________________________________________
conv2d_9 (Conv2D)            (None, 8, 8, 10)          960       
_________________________________________________________________
global_average_pooling2d_1 ( (None, 10)                0         
_________________________________________________________________
activation_9 (Activation)    (None, 10)                0         
=================================================================
Total params: 343,248
Trainable params: 343,248
Non-trainable params: 0
_________________________________________________________________
None
INFO:log:Coef AVG=0.5168077517300844 MAX=0.7229533195495605 MIN=0.24891933798789978 TOTAL_ABS_ERROR(all layer filters)=14.399999999999965
INFO:log:Adjusted layer 0 weights, error was 14.399999999999965
…
