_________________________________________________________________
Layer (type)                 Output Shape              Param #   
=================================================================
conv2d_1 (Conv2D)            (None, 32, 32, 32)        864       
_________________________________________________________________
activation_1 (Activation)    (None, 32, 32, 32)        0         
_________________________________________________________________
conv2d_2 (Conv2D)            (None, 16, 16, 32)        9216      
_________________________________________________________________
activation_2 (Activation)    (None, 16, 16, 32)        0         
_________________________________________________________________
conv2d_3 (Conv2D)            (None, 16, 16, 32)        9216      
_________________________________________________________________
activation_3 (Activation)    (None, 16, 16, 32)        0         
_________________________________________________________________
conv2d_4 (Conv2D)            (None, 8, 8, 32)          9216      
_________________________________________________________________
activation_4 (Activation)    (None, 8, 8, 32)          0         
_________________________________________________________________
conv2d_5 (Conv2D)            (None, 8, 8, 64)          18432     
_________________________________________________________________
activation_5 (Activation)    (None, 8, 8, 64)          0         
_________________________________________________________________
conv2d_6 (Conv2D)            (None, 4, 4, 64)          36864     
_________________________________________________________________
activation_6 (Activation)    (None, 4, 4, 64)          0         
_________________________________________________________________
conv2d_7 (Conv2D)            (None, 4, 4, 10)          640       
_________________________________________________________________
global_average_pooling2d_1 ( (None, 10)                0         
_________________________________________________________________
activation_7 (Activation)    (None, 10)                0         
=================================================================
Total params: 84,448
Trainable params: 84,448
Non-trainable params: 0
_________________________________________________________________
None
Epoch 1/60
   1/1562 [..............................] - ETA: 133s - loss: 2.3148 - acc: 0.0625   3
…
